simple_iris_model.pt (torch, 3116 bytes, 6 tensors)

fc1.weight f4 [8, 4]
000000 fa fd 2f 3e 81 22 cd be 9d fb b7 be fc c6 69 3d
       0.17186728 -0.40065387 -0.35934153 0.057074532
000010 08 29 c6 be f0 7d a2 3d 60 a1 17 3e da 44 f4 be
       -0.3870318 0.07934177 0.14807653 -0.4770878
000020 46 78 65 3e 04 c4 47 bc d8 c3 04 3f aa 3b 59 bd
       0.22409162 -0.01219273 0.51861334 -0.053035416
000030 d5 aa f8 3e ce f7 ec 3e ee f5 e8 bd 3a 5b 63 bf
       0.48567834 0.4628281 -0.11375032 -0.88811076
000040 15 a3 b1 3e 2c 84 32 bf 2d 87 25 3f 87 92 36 3f
       0.34694734 -0.6973293 0.64659387 0.71317333
000050 11 ec 87 3e ce db 46 3f 02 d1 a6 be 95 1c 33 bf
       0.26547292 0.77679145 -0.32581335 -0.6996549
000060 a8 98 28 3e 70 0d e4 bd ec ba d7 be 58 f0 b5 be
       0.16464484 -0.111353755 -0.42134798 -0.3553493
000070 9c 64 a3 be 90 69 13 3e 38 ff b2 be e4 82 69 3e
       -0.31912696 0.14395738 -0.3496034 0.22803837

fc1.bias f4 [8]
000000 66 b5 6e 3e 1c bc 4f be cd d0 ea 3e cd 2e 4a 3e
       0.23311386 -0.20286602 0.45862427 0.19744416
000010 63 6b f5 3c 43 c6 84 3e ea dc 9f be f0 90 c1 3e
       0.029958433 0.25932512 -0.31223232 0.3780589

fc2.weight f4 [9, 8]
000000 3a a1 5e be 21 2c a8 3d 3c 11 19 3e a2 95 9d be
       -0.2174119 0.08211542 0.1494798 -0.30778223
000010 57 c4 be be 16 30 15 3e 8a e5 b2 be 11 1c 87 be
       -0.3725917 0.14569125 -0.3494075 -0.263886
000020 0f 2d 57 3e c5 bf f2 bd 12 7a 24 3f 99 67 bd bc
       0.21013282 -0.118529834 0.64248765 -0.023120688
000030 a0 3a c1 3e 14 f6 0b bf 40 2e 8f 3d 70 31 a7 be
       0.3774004 -0.5467236 0.06991243 -0.32654905
000040 92 b1 d4 be 8d 12 8b be fa d6 23 3d 59 70 84 be
       -0.41541725 -0.2716259 0.03999994 -0.25866964
000050 3f 21 d0 3e aa 2b 7a be 27 0a 9c 3e 89 2c 57 be
       0.40650365 -0.24430719 0.30476496 -0.21013083
000060 5a 52 7f bd b4 92 78 bd 4a 0a 3f 3e 40 cd 0b bd
       -0.062334396 -0.060686782 0.18656269 -0.03413129
000070 4b ec f9 bd 22 76 fb bd 99 b0 99 be f4 f0 e6 bd
       -0.122032724 -0.122783914 -0.30017546 -0.11276427
000080 af 89 bc 3d a5 c6 43 be 80 0e 06 3e b9 f3 0d bf
       0.092059486 -0.19118746 0.13091469 -0.55450016
000090 5d 74 33 3f 89 21 f4 bd e8 49 50 be f6 9e 3a 3c
       0.7009943 -0.11920459 -0.20340693 0.011390438
0000a0 9c 47 a1 bc 4e 61 80 3d 76 46 6b be 4c de 61 be
       -0.019687466 0.062685594 -0.22976097 -0.22057456
0000b0 25 b5 54 bd be 2b 8b be 42 47 21 3d 07 17 39 be
       -0.051930565 -0.2718181 0.039374597 -0.1807519
0000c0 1e af b1 be 53 ea 8e bc c5 30 8c 3e ed 1b 76 3d
       -0.34703916 -0.017445719 0.27380958 0.060085226
0000d0 7d 3f 3b 3f fb 87 29 bf 03 42 e2 bd 36 b8 7f bd
       0.7314375 -0.66223115 -0.11047747 -0.062431537
0000e0 b7 b3 34 be 7c 94 af be 53 57 bd 3e cb 1b 78 3e
       -0.17646681 -0.34292972 0.36980686 0.24229352
0000f0 0a 8f 5d bd 14 99 1b 3f 20 66 b4 be 81 fa 9f 3e
       -0.05409149 0.60780454 -0.35234165 0.31245807
000100 17 d3 ac be 37 2c 55 be ea 5c 3c 3e 75 e4 ca bd
       -0.337548 -0.20817648 0.18394819 -0.09906856
000110 0a 05 ed bd e0 71 80 be 6d 30 dd 3d 49 ee 91 3e
       -0.11573227 -0.2508688 0.10800252 0.2850211

fc2.bias f4 [9]
000000 4b e7 81 3d 4c f8 e5 3e 4b bc d4 be c0 11 e2 be
       0.06342944 0.44915998 -0.41549906 -0.44154167
000010 e3 3e e0 be 04 de 12 bd fa 69 ad 3d 5a 70 86 3e
       -0.4379798 -0.03585626 0.08467479 0.26257592
000020 56 36 05 3d
       0.032522522

out.weight f4 [3, 9]
000000 66 3e 35 be 4f 42 05 bf 07 e5 50 be 07 49 ed bc
       -0.17699584 -0.52054304 -0.20399867 -0.028965486
000010 b6 83 35 bf 43 1a 68 3e ee 97 01 bf be 41 c5 3e
       -0.709041 0.22666268 -0.5062245 0.3852672
000020 b6 1d 9a 3e 3c d0 0c 3e d7 0d dd 3e 19 16 f6 be
       0.30100793 0.1375131 0.4317462 -0.48063734
000030 d8 56 11 be 15 ee 84 be b0 2f 8b 3e 8a 79 a4 3e
       -0.14193285 -0.25962892 0.2718482 0.32123977
000040 92 8d 0d be a8 69 88 3e 89 52 1f be e6 db 21 3e
       -0.13823536 0.2664311 -0.15558828 0.15806541
000050 05 68 34 3e 25 26 47 bd b4 6c e9 3e e6 d2 a4 be
       0.17617805 -0.04862036 0.45590746 -0.32192153
000060 07 ab 1e 3f db ce 1a bf 98 5f 18 be
       0.61979717 -0.60471886 -0.14880216

out.bias f4 [3]
000000 da 76 f6 3e ca 13 b5 be f3 77 e1 be
       0.48137552 -0.3536666 -0.44036826
